sld_detection/tflite models/model2.tflite (tflite, 743700 bytes, 16 tensors)

sequential_3/conv2d_6/Relu;sequential_3/conv2d_6/BiasAdd;sequential_3/conv2d_6/Conv2D;sequential_3/conv2d_6/BiasAdd/ReadVariableOp f4 [32, 3, 3, 3]
0	0x392f6a94	0.00016729004
1	0x38802756	6.1108425e-05
2	0x398ff685	0.00027458757
3	0x39d6bcb7	0.00040957864
4	0xb9936ea7	-0.00028120467
5	0xb816375f	-3.5814355e-05
6	0x39a5c7a8	0.00031620008
7	0xb93b7acc	-0.00017879455
8	0x3a13d110	0.0005638758
9	0x38c01283	9.1587215e-05
10	0xb9cee098	-0.00039458717
11	0x39d72eef	0.00041042964
12	0xb9a94fbe	-0.00032293604
13	0xba0b8813	-0.0005322706
14	0x3a094e9d	0.00052378495
15	0xb9d85257	-0.00041260078
16	0xba01a983	-0.00049462187
17	0x39a1f3cf	0.00030889965
18	0x3a01b587	0.0004948009
19	0xb9260137	-0.00015831446
20	0x392da8a2	0.00016561386
21	0x3996f859	0.00028795263
22	0xb916d0d8	-0.00014382915
23	0xb859228f	-5.1769017e-05
24	0x3a0ad915	0.000529663
25	0x36c91dc5	5.9937324e-06
26	0x38805c40	6.1206985e-05
27	0xb8b19755	-8.4682055e-05
28	0xb98d3907	-0.00026936104
29	0xba0e511d	-0.0005428957
30	0x38a3fe9a	7.819869e-05
31	0x39b4ab83	0.00034460062
32	0xb7253a94	-9.848405e-06
33	0xb8836408	-6.265199e-05
34	0x39f76456	0.00047186267
35	0xb8d5e9ab	-0.000102001555
36	0x3991a458	0.00027779
37	0x38426932	4.6351175e-05
38	0xb8062be4	-3.1988966e-05
39	0x398f4ca3	0.00027332184
40	0xb9e786ee	-0.00044160284
41	0x386bd389	5.6225374e-05
42	0xb983118c	-0.0002499934
43	0xb992fad7	-0.0002803418
44	0xb965c70c	-0.00021913293
45	0xb933d832	-0.0001715131
46	0xb9f7453d	-0.00047163098
47	0x390aa05a	0.00013220441
48	0x39862cab	0.00025591752
49	0x3a13a7b0	0.00056325924
50	0xb93dc365	-0.00018097235
51	0xba04cfef	-0.0005066385
52	0x3a0130d5	0.0004928236
53	0xb9e066fa	-0.00042801333
54	0x39e8472e	0.0004430352
55	0xb9d25740	-0.00040119328
56	0xb9e1ac4b	-0.00043043713
57	0x39425344	0.000185323
58	0xb9aea98c	-0.00033314188
59	0x3912524b	0.00013954302
60	0x3a06d3e2	0.00051432673
61	0x39844b46	0.00025233085
62	0xb91a13eb	-0.00014694004
63	0xb9cc3476	-0.00038949
64	0xb9326c72	-0.00017015802
65	0x39d5342c	0.00040665397
66	0xb9a81b92	-0.00032063999
67	0x39cd25bb	0.00039128758
68	0xb90c6b80	-0.00013391487
69	0xb88110b5	-6.154311e-05
70	0xba025727	-0.0004972093
71	0xba0875e3	-0.0005205555
72	0x39c14ea5	0.00036870423
73	0xb9e176fa	-0.0004300399
74	0xb905ad08	-0.00012748328
75	0x39c9e747	0.00038510023
76	0x39d54337	0.00040676605
77	0x39c38786	0.0003729427
78	0x3960a986	0.00021425457
79	0x390bd672	0.0001333596
80	0x38edcd6d	0.00011339304
81	0xb8e72925	-0.00011022602
82	0xb8e915e8	-0.00011114386
83	0x3979a03f	0.00023806187
84	0x3a1638a5	0.00057304866
85	0xb9054704	-0.00012710324
86	0x39dcee91	0.00042139416
87	0xb8a588a8	-7.893267e-05
88	0x3988c178	0.00026084087
89	0xba04cd8a	-0.0005066028
90	0xb902b3fe	-0.00012464818
91	0xb99878c1	-0.00029081668
92	0x389cc1db	7.474768e-05
93	0xb8befaa0	-9.1065885e-05
94	0xba09738c	-0.0005243353
95	0x39bd86c1	0.0003614929
96	0x39d6a5c8	0.00040940777
97	0xba07897d	-0.00051703287
98	0xb99c5bba	-0.0002982298
99	0x39b9fb4a	0.00035473175
100	0x394317ec	0.00018605561
101	0xb9b3fbe5	-0.00034329217
102	0xb888edb0	-6.529258e-05
103	0xb8aa4077	-8.118239e-05
104	0x39deabcd	0.0004247114
105	0xb935adcf	-0.00017326254
106	0x38839b68	6.2755134e-05
107	0x3a094e9d	0.00052378495
108	0x3869fe43	5.578833e-05
109	0xb97740f8	-0.00023579958
110	0xb9aa1f00	-0.00032448024
111	0x39d02e9e	0.00039707584
112	0x39949614	0.00028340577
113	0xb901a3c3	-0.00012363405
114	0xb8cdba71	-9.809889e-05
115	0x3941c28e	0.00018478392
116	0x3a1c6865	0.0005966484
117	0x39519a30	0.00019989233
118	0xb7c5437e	-2.3515659e-05
119	0xb9ea946d	-0.00044742544
120	0xb8c21c75	-9.2559414e-05
121	0xb86e9055	-5.687804e-05
122	0x398afac1	0.00026508237
123	0x393df0e1	0.00018114179
124	0x391ad104	0.00014764449
125	0x3966099a	0.00021938086
126	0x39cf49b9	0.00039537044
127	0xba1311a6	-0.0005610235
128	0xb7d812fc	-2.5758047e-05
129	0xb9fe74e4	-0.00048533746
130	0xba16a41b	-0.00057464995
131	0x39d56f6f	0.0004070955
132	0xb8ff3637	-0.00012169446
133	0x39932fe3	0.00028073703
134	0xb9ff1197	-0.00048650496
135	0x3930b62b	0.00016852531
136	0x39586138	0.00020635582
137	0xba047a39	-0.0005053613
138	0xb79cd81c	-1.8697283e-05
139	0xb94b2fed	-0.00019377442
140	0x39fe37c1	0.00048488195
141	0x39da4be4	0.00041636743
142	0xb9b302c3	-0.00034143598
143	0x39f07b9c	0.00045868463
144	0xb8ca9372	-9.6595744e-05
145	0x39a33fc5	0.00031137295
146	0x3923dd6d	0.00015627379
147	0xb992d37d	-0.0002800486
148	0x3a19253a	0.0005842034
149	0xb9e4359f	-0.000435275
150	0x38ffc005	0.00012195114
151	0xb9108e43	-0.00013785907
152	0x3871fdf5	5.7695393e-05
153	0xb98aeda1	-0.00026498458
154	0xb8fcc744	-0.000120534125
155	0xb93ada2e	-0.0001781962
156	0xb9d00013	-0.00039672907
157	0x39f05e3b	0.00045846574
158	0xb90c40ec	-0.00013375626
159	0xb9f09d1e	-0.0004589343
160	0xb963f712	-0.00021740448
161	0x3a09854a	0.0005245997
162	0xba25dc79	-0.00063271035
163	0xb8e66f4f	-0.000109879875
164	0x397a83ba	0.0002389093
165	0xba1bac13	-0.0005938422
166	0xba4abd17	-0.0007733865
167	0xb98277c9	-0.0002488478
168	0x3a10b3b3	0.00055199413
169	0xb96de98a	-0.00022689081
170	0xb82ac2ee	-4.07127e-05
171	0xb9d77014	-0.000410915
172	0xb8c9cbc8	-9.622384e-05
173	0x39912e98	0.0002769127
174	0x3983a65d	0.00025110217
175	0xba279bc9	-0.0006393758
176	0xba1a329a	-0.0005882174
177	0xb9bb8722	-0.000357681
178	0x39227f81	0.00015497023
179	0xb5d8685c	-1.6123627e-06
180	0x38d00936	9.9199286e-05
181	0x378ce04a	1.6793743e-05
182	0x38117dd9	3.46879e-05
183	0xba0bc014	-0.0005331051
184	0xb6e5221e	-6.8287036e-06
185	0x38202a05	3.8186106e-05
186	0x39b93529	0.00035325557
187	0xb9745d3a	-0.00023304383
188	0x3966262b	0.00021948728
189	0xb96e1e2b	-0.00022708687
190	0xb90a067e	-0.00013163124
191	0xb9ea5bc6	-0.00044700335
192	0x39cc1f6b	0.0003893332
193	0x38a29e75	7.754277e-05
194	0xb94df01b	-0.0001963977
195	0xb9afd3a8	-0.00033536297
196	0xb8001bb9	-3.0543397e-05
197	0x3955ae81	0.0002037827
198	0x398ba0aa	0.0002663185
199	0xb92f5bf1	-0.00016723551
200	0xb9c71512	-0.00037971936
201	0x39cb2f47	0.00038754402
202	0x39da25f2	0.00041608472
203	0xba00338e	-0.0004890495
204	0xb98f28f2	-0.00027305592
205	0xb96f719e	-0.00022835142
206	0x393b8f8a	0.00017887182
207	0xb95fdbf3	-0.00021348875
208	0xb9b5a7ae	-0.0003464794
209	0xb8c56e29	-9.414211e-05
210	0xb7d689e2	-2.5574995e-05
211	0x39e831d1	0.00044287604
212	0x39cb5683	0.00038783633
213	0x39b0c59d	0.0003371657
214	0x394b6e98	0.00019400788
215	0xb8cc6def	-9.747955e-05
216	0x3966047e	0.00021936183
217	0x399979f3	0.00029273293
218	0xb8353238	-4.3200533e-05
219	0xb94e1d4f	-0.00019656609
220	0xb98a1786	-0.00026338937
221	0x397ac0f3	0.00023913737
222	0xb9e6cf7f	-0.00044023615
223	0xb9948beb	-0.00028333007
224	0x3a101bfe	0.0005497335
225	0xb9b0c188	-0.00033713528
226	0xb966340b	-0.00021953897
227	0xb9d91b48	-0.0004140979
228	0xb9a4cbdf	-0.00031432413
229	0x39a1f7f4	0.00030893052
230	0x39e66175	0.0004394163
231	0xb9c27f51	-0.00037097422
232	0xb771da67	-1.441557e-05
233	0x39e0f02a	0.00042903546
234	0x399f7ced	0.0003041992
235	0xb98a3d08	-0.00026366883
236	0x38abde31	8.195302e-05
237	0xb9cca57f	-0.00039033216
238	0x372fc9be	1.0477785e-05
239	0xb92684d0	-0.0001588047
240	0xb9ac50f6	-0.00032866717
241	0xb9e563b4	-0.00043752568
242	0xb7eb120d	-2.8022589e-05
243	0xb9e88063	-0.00044346144
244	0x38ea9671	0.000111860114
245	0xb9a8490b	-0.00032097878
246	0xba14794a	-0.00056638254
247	0x39146a00	0.00014153868
248	0x39e880ad	0.0004434636
249	0x384ceb75	4.8856677e-05
250	0x39e91595	0.00044457303
251	0x3a029149	0.00049807556
252	0xb985b2d3	-0.0002550097
253	0xb9c7150e	-0.00037971925
254	0xb956e379	-0.0002049337
255	0x3964c72f	0.00021817976

sequential_3/conv2d_6/BiasAdd/ReadVariableOp f4 [32]
0	0x3c781251	0.015141086
1	0x3c6e7c5e	0.014556019
2	0xbc25d7dc	-0.010122266
3	0x3c01d6db	0.007924761
4	0xba57294a	-0.00082077517
5	0x3cc1bb42	0.023648862
6	0x3cf7c9b7	0.030247552
7	0xbbd55f8e	-0.006511635
8	0x3c98f60b	0.01867201
9	0x3bc36bd9	0.005963784
10	0x3c8b59e9	0.017010646
11	0xbc09dca7	-0.008414424
12	0xbcc9557d	-0.024576897
13	0xbcc1b019	-0.02364354
14	0x3cde187e	0.027111288
15	0x3d9e340f	0.07724773
16	0x3bc4e739	0.006009009
17	0x3c217367	0.009854174
18	0x3bd63614	0.0065372083
19	0x3d540502	0.05176259
20	0x3ce7b99c	0.028286748
21	0xbc67a96b	-0.0141395135
22	0xbcef9ca7	-0.029249502
23	0x39c65a49	0.0003783277
24	0xbca741e5	-0.020417163
25	0x3ba87994	0.0051414464
26	0xbc2d7f77	-0.010589472
27	0xbcb5c0d0	-0.022186667
28	0x3ca64fee	0.020301785
29	0x3d2a2d26	0.041546963
30	0xbc7606e6	-0.015016293
31	0x3c8ff4b4	0.017572738

sequential_3/conv2d_7/BiasAdd/ReadVariableOp f4 [64]
0	0xbbdf171c	-0.006808175
1	0xbccd1a0b	-0.025036832
2	0xbc81ba14	-0.0158358
3	0xba9fa309	-0.0012179326
4	0x3c2360a3	0.00997177
5	0x3c4a9cce	0.012366487
6	0xbb08f4bb	-0.0020897824
7	0xbb3a04bb	-0.0028384167
8	0x3bce1a05	0.006289723
9	0x3a8b3ebc	0.0010623555
10	0xbc3424fe	-0.010995148
11	0x3c422800	0.011850357
12	0x3bd3d536	0.0064646257
13	0x3c84c8ee	0.016209092
14	0x3bdb19a3	0.0066864057
15	0x3bf15f5f	0.0073661054
16	0x3b251fda	0.0025195987
17	0x3bf9fe50	0.0076291934
18	0xbbc46f65	-0.0059947246
19	0x390450f0	0.00012618653
20	0xbbf5199b	-0.007479859
21	0x3cbedb99	0.023298072
22	0xbb01be2c	-0.001979719
23	0x3bdc3e95	0.0067213275
24	0xbbd7184b	-0.0065641752
25	0xbc20aa28	-0.009806193
26	0x3c7bb7c5	0.015363638
27	0x3cdb0c20	0.02673918
28	0xbbddd09f	-0.0067692543
29	0x3c49c5a7	0.01231519
30	0xbbd28ddc	-0.0064256024
31	0x3bfb8090	0.007675238
32	0xbc6a8c08	-0.014315613
33	0xbbe6a29c	-0.0070384275
34	0xbb87a87f	-0.0041399593
35	0x3c2af457	0.010434232
36	0xba56aefe	-0.0008189528
37	0x3b95fb88	0.004577104
38	0x3b9b0b93	0.0047316044
39	0xbc024c3c	-0.007952746
40	0xbca895e9	-0.020579295
41	0x3b5fc7e2	0.003414624
42	0x3d2011e5	0.039079566
43	0xbc0fff32	-0.008788871
44	0x3c1f1fa8	0.009712137
45	0x3c3ecc44	0.01164538
46	0x3b833a9f	0.004004791
47	0x3b0471db	0.0020209465
48	0x3c1426f2	0.009042488
49	0x3c339129	0.010959902
50	0x3c0840f5	0.008316268
51	0xbb8e5a33	-0.0043442487
52	0x3cd8effc	0.026481621
53	0x3b137a6e	0.0022503394
54	0x3bcc5112	0.0062352503
55	0xbbe10410	-0.0068669394
56	0x3ae80982	0.0017703029
57	0xbc3bcf8a	-0.011463055
58	0x3c2d6d68	0.0105851665
59	0xbafd4861	-0.0019323939
60	0x3c834633	0.016024685
61	0xb97860be	-0.00023687162
62	0x3c59b7ef	0.013288482
63	0xbbdb2c8c	-0.00668866

sequential_3/conv2d_8/BiasAdd/ReadVariableOp f4 [64]
0	0xbc128fb6	-0.008945396
1	0x3caf076f	0.02136585
2	0x3d0c04f8	0.034184426
3	0x3cced131	0.025246235
4	0xbc199454	-0.009373743
5	0x3ca66382	0.02031112
6	0xbc4bedfa	-0.012446875
7	0x3b96732c	0.0045913663
8	0xbb9cd141	-0.004785687
9	0x3bee5d42	0.007274301
10	0xbbec8264	-0.007217692
11	0x3c8e7fd0	0.01739493
12	0xbc1f3148	-0.009716339
13	0x3b929fa8	0.004474599
14	0x3c96825f	0.018372713
15	0xb706abdc	-8.0270365e-06
16	0xbbc9e82f	-0.0061617116
17	0xbbde7b47	-0.006789598
18	0xbb52305d	-0.0032072284
19	0x3cdd8a13	0.027043378
20	0xbc8e70e4	-0.017387815
21	0xb9ffd050	-0.00048792595
22	0xbc04ca31	-0.008104847
23	0x3b905c2b	0.0044055185
24	0xbc57d840	-0.013174117
25	0x3c195b88	0.009360202
26	0xbc6d4503	-0.014481786
27	0xbbcc1d37	-0.0062290686
28	0xbb02e2f3	-0.0019971698
29	0x3c4c4627	0.0124678975
30	0xbbeefce4	-0.0072933305
31	0xbc037392	-0.00802316
32	0xbbfe2c7f	-0.007756769
33	0x3c5d1cdb	0.013495649
34	0xbcb0b644	-0.021571286
35	0x3c99e888	0.018787637
36	0x3c8f65cf	0.0175046
37	0x3b027cf1	0.0019910897
38	0xbbb49146	-0.005510482
39	0xbc848061	-0.016174497
40	0x3ab7d75e	0.0014025976
41	0xbb99c13a	-0.004692224
42	0xbbe622c6	-0.0070231883
43	0xbc42953f	-0.011876403
44	0xbc8efc70	-0.017454356
45	0xbc0302b0	-0.007996246
46	0x3c12e5dd	0.0089659365
47	0xb9e82ffe	-0.00044286245
48	0x3c6c24f0	0.014413103
49	0x3ac43d3f	0.0014971866
50	0x3c853735	0.016261676
51	0x3c57c3ce	0.013169242
52	0x3c2e1b98	0.010626696
53	0x3c4d5691	0.012532846
54	0xbb81992d	-0.0039550276
55	0xbbead5b2	-0.0071665877
56	0xbbcbdf5f	-0.0062216963
57	0x3a9d71e4	0.0012012091
58	0xbbcc9045	-0.006242784
59	0xbc38198f	-0.011236562
60	0xbbe193d5	-0.006884078
61	0xbb3bd2e1	-0.002865963
62	0x3c082edb	0.008311952
63	0x3c613436	0.013745358

sequential_3/conv2d_9/BiasAdd/ReadVariableOp f4 [64]
0	0xbc327d42	-0.010894122
1	0xbb295c50	-0.0025842376
2	0x3a565ee1	0.000817759
3	0x3c6d9920	0.01450184
4	0x3c865df8	0.01640223
5	0xbc708e37	-0.014682344
6	0xbbf97420	-0.00761272
7	0xbbe43211	-0.006963976
8	0x3c6589cd	0.014009905
9	0xbbfa661e	-0.007641568
10	0x3c966abf	0.018361447
11	0x3b460793	0.0030216917
12	0xbc1fce21	-0.009753735
13	0xbd01a968	-0.0316557
14	0xbc941174	-0.018074729
15	0xbc818260	-0.015809238
16	0xbc34b2ec	-0.011028986
17	0x3b78e1dc	0.003797642
18	0xbb77a17c	-0.0037785461
19	0x39baa50f	0.00035599663
20	0x3d0b8ecf	0.03407174
21	0xbccc14b3	-0.024912214
22	0xbb9ec92d	-0.0048457594
23	0x3b2a6a97	0.0026003474
24	0x3ceeed77	0.029165966
25	0xbb75e797	-0.0037522072
26	0x3b50e5dc	0.0031875288
27	0x3c49a86f	0.012308224
28	0xbbbc2357	-0.0057415175
29	0x3ba559d7	0.00504611
30	0xb9becf3e	-0.00036394031
31	0xbbb922cb	-0.0056498996
32	0x3cf6337f	0.030053852
33	0xbb2bb074	-0.0026197704
34	0xbbc84e9f	-0.006112888
35	0xbcac635b	-0.02104347
36	0xb7558550	-1.2726829e-05
37	0x3c2f1743	0.010686698
38	0xbc9a1714	-0.018809833
39	0xbbfff0ff	-0.0078107114
40	0x3ce0632e	0.027391043
41	0x3b1769c3	0.002310381
42	0xb9357057	-0.00017303355
43	0x3cbe9eab	0.023269018
44	0xbc8a2702	-0.016864303
45	0x3cc47e0b	0.023985883
46	0xbc45ee14	-0.012080688
47	0x3caf7974	0.021420218
48	0xbb3cda53	-0.0028816655
49	0xbc40a27b	-0.011757488
50	0xbc7a052e	-0.015260024
51	0x3bd41e8a	0.006473367
52	0xbcb3819d	-0.02191239
53	0xbc2dce7b	-0.010608311
54	0x3ca817b6	0.020519119
55	0x3b99b540	0.004690796
56	0x3ae29beb	0.0017288899
57	0xbc178739	-0.009248548
58	0x3c9c878e	0.019107606
59	0xbbf00eb0	-0.0073259696
60	0x3bbf6720	0.005841151
61	0xbae8385e	-0.0017716994
62	0xbc91f24b	-0.01781573
63	0x3c6ea8ff	0.014566659

sequential_3/conv2d_10/BiasAdd/ReadVariableOp f4 [64]
0	0xbcb4efcb	-0.022086998
1	0xbc1cb0e7	-0.009563661
2	0x3cc61d2f	0.024183838
3	0x3c4cf190	0.012508765
4	0xbbf6a0fe	-0.007526516
5	0xbc62e3fc	-0.013848301
6	0xbc6394bb	-0.013890441
7	0xbce129c9	-0.027485745
8	0x3b6942b7	0.0035592744
9	0x3b887210	0.004163988
10	0xbba48186	-0.005020323
11	0xbbde58c7	-0.0067854854
12	0xbcf82c49	-0.030294554
13	0xbc117525	-0.008878027
14	0xbc9183c6	-0.01776303
15	0x3ca1c814	0.019748725
16	0xbc75a4ce	-0.014992906
17	0x3d01f40a	0.031726874
18	0xbc04fefe	-0.0081174355
19	0xbbf03305	-0.0073303008
20	0x3cd9cb29	0.026586132
21	0x3cfe1ef1	0.031020613
22	0x3babbf83	0.005241336
23	0x3d1f2ada	0.038859226
24	0xbbdc42c2	-0.0067218253
25	0xbc4e1a9d	-0.012579587
26	0x3b0ee35c	0.0021802997
27	0xbc4fe4aa	-0.012688795
28	0xbbc18629	-0.0059058857
29	0x3ca16a98	0.019704148
30	0xbbfcf872	-0.0077200467
31	0xbc96dd23	-0.018415993
32	0x3c3f70a4	0.01168457
33	0xbca41932	-0.020031545
34	0xbbd4d536	-0.0064951433
35	0x3ce2c4f8	0.027681813
36	0x3b70412a	0.0036659935
37	0xbc149718	-0.009069227
38	0xbb8b318a	-0.004247849
39	0xbc78e31e	-0.015190868
40	0xbc1ac3d3	-0.009446102
41	0x3a93180c	0.0011222376
42	0xbca469d6	-0.020069998
43	0xbc3e961b	-0.011632468
44	0xbbadf0c7	-0.005308244
45	0xbbc35a29	-0.0059616757
46	0x3c6164b3	0.013756919
47	0xbce08bd0	-0.027410418
48	0xbc5f6c4e	-0.013636662
49	0x3d08cf91	0.033401076
50	0xbc2b9c8b	-0.0104743345
51	0xbb9e6ae7	-0.004834521
52	0xbcd937ff	-0.026515959
53	0x3c0bee23	0.008540663
54	0xbd0a919d	-0.033830274
55	0xbc1f6f10	-0.009731069
56	0x3aae90cd	0.00133183
57	0xbbcc93a9	-0.0062431884
58	0xbc106c9c	-0.008814957
59	0xba89f4c5	-0.0010525218
60	0xbbe7d503	-0.0070749535
61	0xbba66a02	-0.005078555
62	0xbbd278e8	-0.0064231046
63	0x3aa5719f	0.0012622363

sequential_3/conv2d_11/BiasAdd/ReadVariableOp f4 [64]
0	0xbcea999d	-0.028637702
1	0xbc799b61	-0.015234799
2	0xba5ed73b	-0.00085007
3	0x3cdf9859	0.027294325
4	0xbbd22b66	-0.006413865
5	0xbb113b1d	-0.0022160478
6	0xbc85cfe5	-0.016334483
7	0xbcf1d0e1	-0.029518547
8	0xbbc3f9d4	-0.0059807096
9	0x3cdbfb07	0.026853098
10	0xbbf12dda	-0.0073602023
11	0xbb96e9f3	-0.0046055256
12	0xbc1bade9	-0.009501913
13	0xbbe465d1	-0.0069701453
14	0x3d21ab01	0.039469723
15	0xbc7c0f56	-0.015384516
16	0x3b521766	0.0032057404
17	0xbc747c9e	-0.014922289
18	0x3cdbdc43	0.026838427
19	0xbc54cd2f	-0.012988373
20	0xbc0e3446	-0.008679455
21	0xba2b2f31	-0.00065301644
22	0xbbf1d34c	-0.007379925
23	0x3cf69665	0.03010101
24	0xbc3272f6	-0.010891667
25	0x3be72503	0.0070539727
26	0x3a0a13a0	0.00052672066
27	0x3d417051	0.047226254
28	0x3baa3fe1	0.0051956032
29	0x3c51b271	0.012798891
30	0x3b893af4	0.004187936
31	0xbc8bc631	-0.017062278
32	0x3ca0107d	0.019539112
33	0xbd30ad64	-0.04313411
34	0x3c4951a5	0.012287532
35	0xbd030576	-0.03198763
36	0xbbc6b092	-0.0060635293
37	0xbbb988f8	-0.00566208
38	0xbcc23daa	-0.023711044
39	0xbca1e492	-0.019762311
40	0x3d349511	0.044087473
41	0xba0ee1ca	-0.00054505153
42	0xbb4c7ce8	-0.003120238
43	0x3d8f33d6	0.06992309
44	0xbcaa37c2	-0.02077854
45	0xbcb0085b	-0.02148836
46	0x3bb73902	0.0055915127
47	0xbd590dea	-0.052991785
48	0xbc0266b0	-0.007959053
49	0x3d3c797f	0.046014305
50	0x3cff4cb7	0.03116451
51	0x3c4d1ee6	0.012519574
52	0xbc98c67d	-0.018649334
53	0xbc3f3ee4	-0.011672709
54	0xbbd3b904	-0.0064612646
55	0xbc046d61	-0.008082719
56	0xbc1276c7	-0.008939452
57	0xbb9935d7	-0.0046756077
58	0xbb940f0b	-0.004518395
59	0x3d26383e	0.04058098
60	0x3ae52a1e	0.0017483865
61	0xbc60a039	-0.013710075
62	0x3d11a48a	0.035557307
63	0x3ad508bf	0.0016253217

sequential_3/conv2d_7/Conv2D f4 [64, 3, 3, 32]
0	0xbadb84c6	-0.0016747944
1	0x3d95b2dd	0.07309506
2	0x3cdeb1a3	0.027184313
3	0xbdac44a5	-0.084115304
4	0xb9b1e742	-0.0003393237
5	0xbd3d54f7	-0.046223607
6	0x3d689f52	0.056792565
7	0x3d714f3f	0.058913466
8	0xbcf3b18d	-0.029747749
9	0x3d02b83b	0.031913977
10	0xbd923eaf	-0.07140862
11	0x3d98486f	0.074356906
12	0x3c97fb88	0.018552557
13	0x3cdbeb97	0.026845736
14	0xbd4f549c	-0.0506178
15	0xbd814d9a	-0.063136294
16	0x3cd1c6d7	0.02560751
17	0xbd9f13de	-0.07767461
18	0x3b1a83d9	0.0023577122
19	0x3c3e9251	0.011631564
20	0xbd04ae2f	-0.032392677
21	0xbaefa0bd	-0.0018282157
22	0x3c95f0d1	0.018303307
23	0xbccfeb9b	-0.0253809
24	0x3d3550c3	0.044266474
25	0x3ca9f048	0.020744458
26	0x3d4fade0	0.05070293
27	0xbbbff1e7	-0.0058576944
28	0xbd0e8ee1	-0.03480423
29	0x3da72e4c	0.08163127
30	0x3d8118e6	0.06303577
31	0x3d63b446	0.055591844
32	0xbbde220e	-0.006778962
33	0xbd8cf1f4	-0.068820864
34	0x3c902585	0.017596016
35	0x3d7191ff	0.058977123
36	0xbd3ad854	-0.045616463
37	0x3d130736	0.03589555
38	0x3d3366c0	0.043799162
39	0x3d07dc37	0.033168998
40	0x3d68c6bc	0.056830153
41	0xbd5b6ad2	-0.05356867
42	0x3cb1544f	0.021646647
43	0xbd9a6153	-0.07538094
44	0x3cd43a17	0.025906606
45	0xbdaca7db	-0.084304534
46	0x3d3aaaf6	0.045573197
47	0x3cafe37d	0.02147078
48	0x3cd60947	0.02612747
49	0x3b796459	0.0038054197
50	0xbcb9b61f	-0.02266985
51	0x3d7e5b2c	0.062098667
52	0x3c816bf0	0.015798539
53	0x3d7a4df9	0.061109517
54	0xbc281cd5	-0.01026078
55	0x3d4c19b1	0.04982919
56	0xbd101e00	-0.03518486
57	0x3d4fc37d	0.05072354
58	0x3d9014ea	0.07035239
59	0xbccad56c	-0.02475997
60	0xbdb85412	-0.0900041
61	0x3c933977	0.017971737
62	0x3cd1ae35	0.025595764
63	0xbc883712	-0.016627822
64	0xbd048106	-0.03234961
65	0xbd5f3645	-0.054495115
66	0x3d15311e	0.036423795
67	0xbc32fba0	-0.01092425
68	0x3d554a0c	0.05207257
69	0xbd9ba406	-0.07599644
70	0x3d505830	0.050865352
71	0xb943f2a5	-0.00018687041
72	0xbcc01415	-0.023447076
73	0xbd05a41c	-0.03262721
74	0x3d9e3565	0.07725028
75	0x3a60361e	0.0008552986
76	0x3d968d63	0.07351186
77	0xbd8787f4	-0.06617728
78	0xbd6c021a	-0.05761919
79	0x3c89b2e6	0.016808938
80	0x3bd5f4f3	0.0065294444
81	0xbc16febe	-0.009216009
82	0x3d5046d7	0.05084881
83	0xbb31a41c	-0.0027105873
84	0x3d255e5c	0.04037319
85	0xbd018026	-0.031616352
86	0xbd9bcea9	-0.07607777
87	0x3d2c0151	0.041993443
88	0x3d55b369	0.052173052
89	0x3cc955fa	0.02457713
90	0xbc91183d	-0.017711753
91	0xbda37b27	-0.07982474
92	0xbcbd418a	-0.02310254
93	0xbcffb543	-0.031214362
94	0xbd9335c2	-0.07187988
95	0xbd943d2f	-0.07238232
96	0xbd0305a4	-0.0319878
97	0xbd9aaa9d	-0.07552073
98	0xbd8263c3	-0.06366684
99	0x3ca95a63	0.020672983
100	0x3cee6be9	0.02910419
101	0xbaf6eced	-0.001883892
102	0xbcb111b1	-0.021614881
103	0xbc5a8dff	-0.013339519
104	0x3d0d3bd6	0.034480892
105	0xbd6f1bee	-0.058376245
106	0x3c211ddd	0.00983378
107	0xbdb479ee	-0.08812319
108	0xbc281dec	-0.01026104
109	0xbdaad98b	-0.08342274
110	0x3c04d4ee	0.008107407
111	0xbc829bc2	-0.015943412
112	0xbd96ffb2	-0.07372989
113	0xbd7f83c1	-0.06238151
114	0xbb5b28d6	-0.0033441088
115	0x3d0cdc18	0.034389585
116	0x3afb95da	0.001919444
117	0x3d905b83	0.070487045
118	0xbc80071d	-0.015628392
119	0x3cafe154	0.02146975
120	0xbd531151	-0.051530186
121	0xb9dfc0f0	-0.00042677624
122	0xbdb088f4	-0.08619872
123	0xbbd1760b	-0.0063922456
124	0xbbdd0376	-0.0067447973
125	0x3c9a1baa	0.01881202
126	0xbbbcfdd4	-0.0057675634
127	0xbc3cf992	-0.011534112
128	0xbc8375e3	-0.016047424
129	0x3d993991	0.07481683
130	0x3d80abf4	0.062827975
131	0xbd9e9fc4	-0.077453166
132	0x3d0e6137	0.03476068
133	0x3b061f2e	0.0020465362
134	0x3d8d0fd6	0.06887786
135	0xbbb36b5e	-0.0054754457
136	0xbc3553fe	-0.011067389
137	0x3d2fab50	0.042887986
138	0xbd0650e0	-0.032791972
139	0xbd18b1f4	-0.037279084
140	0xbd96949c	-0.07352564
141	0xbd25db5f	-0.04049241
142	0xbda5955f	-0.08085131
143	0xbd780f90	-0.060561717
144	0xbd6f22cd	-0.058382798
145	0x3bbd6673	0.005780035
146	0xbcc25619	-0.023722695
147	0xbda60ce9	-0.08107931
148	0xbd914ec9	-0.07095105
149	0xbd6c394f	-0.05767184
150	0x3c463ac1	0.012098969
151	0xbdadb601	-0.0848198
152	0x3d9622b9	0.073308416
153	0xbd1ace1f	-0.03779423
154	0x3cb36d52	0.021902714
155	0xbd7ce676	-0.061743222
156	0xbc5b1f69	-0.013374188
157	0xbb790cba	-0.003800197
158	0x3d491253	0.04908974
159	0xbc9d74d2	-0.019220743
160	0xbcf59114	-0.029976405
161	0xbd54f5ec	-0.051992342
162	0xbc754ef9	-0.014972442
163	0x3d5812b0	0.052752197
164	0xbcc120be	-0.023575183
165	0xbda7df38	-0.081968725
166	0x3c45ad9e	0.012065319
167	0x3d165d00	0.036709785
168	0xbd8b0da5	-0.06789712
169	0xbc85be4c	-0.016326092
170	0x3ba9e394	0.0051846
171	0x3d97d928	0.07414466
172	0x3d838519	0.06421871
173	0xbda76f57	-0.08175533
174	0xbca1d7e9	-0.019756274
175	0x3d60ae07	0.054853465
176	0x3ca3dbd0	0.020002276
177	0x3cbc27db	0.022968223
178	0x3cdca461	0.02693385
179	0xbc5d8c46	-0.013522213
180	0xbdaa46e8	-0.083143055
181	0xbd1defbe	-0.038558714
182	0x3cc56e3c	0.024100415
183	0xbd9751aa	-0.07388623
184	0xbd761692	-0.06008012
185	0xbd870972	-0.065935984
186	0xbd6e8241	-0.05822969
187	0xbd8ab985	-0.06773666
188	0x3d80ede9	0.06295378
189	0x3ce339e6	0.027737569
190	0xbd622457	-0.055210438
191	0x3d5cb041	0.053879026
192	0xbd9d4e5d	-0.07680962
193	0xbc0c6735	-0.008569528
194	0xbcd2bc3c	-0.025724523
195	0x3c9be8bf	0.01903188
196	0x3d324da1	0.043531064
197	0x3d4c0108	0.04980567
198	0x3d011856	0.03151735
199	0xbda337cc	-0.07969627
200	0xbdab359c	-0.083598346
201	0x3d3f8839	0.04676077
202	0xbc3e0f98	-0.0116003975
203	0x3d7f89e9	0.06238738
204	0xbcc96643	-0.024584895
205	0x3d248410	0.040165007
206	0x3d334281	0.043764595
207	0x3aa937b2	0.0012910275
208	0x3d9dd634	0.07706872
209	0x3d2d7dc3	0.042356264
210	0x3d561b4b	0.052272122
211	0xbd79af69	-0.0609583
212	0x3d6cbdf1	0.05779833
213	0x3d916fe6	0.07101421
214	0x3c3a9dc1	0.0113901505
215	0xbd097f4c	-0.033568665
216	0x3d46598e	0.04842525
217	0xbdb12182	-0.08648969
218	0x3ce3a72c	0.027789675
219	0x3ac2c89c	0.0014860812
220	0xbd73f407	-0.059558894
221	0x3ce10ff8	0.027473435
222	0xbc9fb142	-0.019493703
223	0xbd2f311d	-0.042771447
224	0xbd80e286	-0.06293206
225	0xbc64e607	-0.013970858
226	0xbd810b6c	-0.06301007
227	0x3d22b413	0.039722513
228	0xbd9ae9d4	-0.075641304
229	0x3d5aa5b4	0.053380683
230	0xbd3a1dc6	-0.04543855
231	0x3bbdbf37	0.005790617
232	0xbcc36f0b	-0.02385666
233	0xbd647dab	-0.05578391
234	0x3ced17ca	0.028942008
235	0xbd90006c	-0.070313305
236	0xbdb6fedd	-0.0893533
237	0x3d5422e4	0.051791087
238	0xbc0cd4bf	-0.0085956445
239	0x3d93ecc4	0.07222894
240	0x3d62ca74	0.055368856
241	0x3a1df9b8	0.00060262857
242	0x3d2110b5	0.039322574
243	0x3bc6370e	0.0060490435
244	0xbc4767d6	-0.0121707525
245	0x3d1cde34	0.038297847
246	0x3cb7afd1	0.022422703
247	0x3d991322	0.074743524
248	0xbd9caad9	-0.07649774
249	0x3d4b16bd	0.04958223
250	0xbda99f26	-0.08282308
251	0x3bdb6edd	0.0066965655
252	0x3aa01cce	0.0012215616
253	0xbd0f7e08	-0.035032302
254	0xbd92eedd	-0.07174466
255	0xbd95743a	-0.07297559

sequential_3/conv2d_8/Conv2D f4 [64, 3, 3, 64]
0	0x3d4add4e	0.04952746
1	0x3c3e629e	0.011620192
2	0x3d4cfefe	0.050047867
3	0xbd644b3f	-0.055735823
4	0x3d5a1590	0.05324322
5	0x3ce7ceb1	0.0282968
6	0xbd9db664	-0.07700804
7	0xbc7dbeaa	-0.015487352
8	0x3cf2962e	0.029612627
9	0xbd59ead7	-0.053202476
10	0xbc8a7059	-0.016899275
11	0xbcf967c9	-0.030444996
12	0xbd253dac	-0.040342018
13	0x3d65554c	0.05598955
14	0xbd67cf9a	-0.05659447
15	0x3c9b97af	0.018993227
16	0x3cbf01d3	0.0233163
17	0xbcdfcfa8	-0.027320698
18	0xbd811e49	-0.063046046
19	0x3d7a266c	0.0610718
20	0xbc05937b	-0.008152838
21	0xbd5088ca	-0.050911702
22	0xbbd1e64b	-0.006405627
23	0x3d6cb1dc	0.057786807
24	0x3d2fb5cf	0.042897996
25	0xbd5b49b2	-0.05353708
26	0x3c6bc383	0.014389875
27	0x3cd5f2aa	0.026116688
28	0x3d27bb6d	0.040950228
29	0xbc967347	-0.018365515
30	0xbb17e290	-0.0023175813
31	0xbd4ec560	-0.0504812
32	0xbcda542a	-0.02665146
33	0x3d3c2778	0.045936078
34	0xbafa50f0	-0.0019097608
35	0xbd67c5e8	-0.056585222
36	0x3af0e08c	0.0018377467
37	0x3cf39f4d	0.029739046
38	0x3d8bfba8	0.06835109
39	0x3cf772e8	0.030206159
40	0xbb7b4278	-0.003833918
41	0xbd334e29	-0.04377571
42	0x3c2bed17	0.010493538
43	0xbd48b418	-0.048999876
44	0xbd6708d6	-0.05640491
45	0xbd1a94c6	-0.037739538
46	0xbd8e1a33	-0.06938591
47	0x3d4d80a3	0.050171506
48	0x3be84b4d	0.0070890547
49	0xbc99c9dd	-0.018773014
50	0x3ce9d7c2	0.028545264
51	0xbd1d4719	-0.038397882
52	0x3ca70638	0.020388708
53	0x3d1cd4ed	0.038289
54	0xbd633886	-0.055473827
55	0x3b7910dd	0.0038004436
56	0x3898264f	7.25506e-05
57	0x3d844b82	0.064597145
58	0xbb80403f	-0.0039139087
59	0x3ce27e4f	0.02764812
60	0x3c6f1117	0.014591477
61	0xbd495c95	-0.04916056
62	0x3b90a285	0.004413905
63	0x3c987c1e	0.018613871
64	0x3d651251	0.05592567
65	0xbcc2257a	-0.02369951
66	0x3cd8618a	0.026413698
67	0xbc28109d	-0.010257867
68	0x3d8340eb	0.064088665
69	0xbd41dc59	-0.04732928
70	0xbd27d8ce	-0.040978245
71	0xbcbe92ee	-0.02326342
72	0xbd262f8a	-0.04057268
73	0xbd853771	-0.06504715
74	0xbd8f6d8f	-0.070033185
75	0xbc628434	-0.013825465
76	0xbd178bb6	-0.036998473
77	0xb907a8d7	-0.00012937501
78	0x3d4c17cf	0.049827393
79	0x3d0e10fd	0.03468417
80	0xbc915dc0	-0.017744899
81	0x3c974d2a	0.018469412
82	0xbbe142d4	-0.0068744216
83	0x3cb359b9	0.021893369
84	0xbd5b65f1	-0.053564016
85	0xbd7024a7	-0.058628704
86	0xbd36ce87	-0.044630554
87	0xbda0436b	-0.07825359
88	0x3d691b36	0.056910716
89	0xbd775e21	-0.060392503
90	0x3caddd58	0.021223709
91	0x3d14cf83	0.03633071
92	0xbd8cc383	-0.068732284
93	0xbd7e404c	-0.062073037
94	0xbd974815	-0.073867954
95	0x3d48cb2e	0.049021892
96	0x3c9e8143	0.019348746
97	0xbd8bc7d5	-0.06825224
98	0xbd8cdd02	-0.068780914
99	0xbcb79cb5	-0.02241359
100	0x3c052a11	0.008127705
101	0xbd2456c3	-0.040121805
102	0xbd82843e	-0.063728794
103	0x3d4042e9	0.04693881
104	0x3d3df94a	0.04638032
105	0x3cfb7587	0.03069569
106	0x3c9c05c0	0.01904571
107	0x3c7ba753	0.015359717
108	0xbd504d19	-0.050854776
109	0x3d592dbf	0.053022142
110	0x3c98a224	0.018632002
111	0x3c0563f7	0.008141509
112	0xbcaa9d23	-0.020826882
113	0x3d579411	0.05263144
114	0xb934b69c	-0.00017234165
115	0x3b405199	0.002934551
116	0xbd7db7d9	-0.06194291
117	0xbd305601	-0.04305077
118	0x3d85513b	0.06509634
119	0xbb8e584d	-0.0043440224
120	0x3d5d0773	0.053962182
121	0x3ca9653c	0.020678155
122	0xbd72eb74	-0.059306577
123	0xbd94cdde	-0.072658285
124	0x3b099a51	0.002099652
125	0x3d26e000	0.040740967
126	0x3cca27b3	0.024677133
127	0xbd6a1e23	-0.057157647
128	0xbbdde651	-0.0067718406
129	0xbc322e85	-0.010875349
130	0x3d6f764e	0.058462434
131	0xbb1ee0fa	-0.0024242983
132	0x3d3ce72b	0.046118896
133	0x3c1afe7d	0.009460089
134	0xbce324e9	-0.027727561
135	0xbda233bc	-0.07920024
136	0xbc4325a6	-0.011910832
137	0x3d6c3a3e	0.05767273
138	0x3cf992fd	0.030465597
139	0x3d3b1ce9	0.045681868
140	0x3cf19869	0.02949162
141	0xbd1f3e58	-0.038877815
142	0xbd287fd4	-0.04113753
143	0xbcef3e6f	-0.029204575
144	0xbd8b1b8e	-0.06792365
145	0xbd61e1e1	-0.055147056
146	0x3d8b693a	0.0680718
147	0xbd9ed0c9	-0.07754666
148	0xbd81c146	-0.06335692
149	0xbd4c6353	-0.04989941
150	0x3d73a36d	0.059482027
151	0x3cd7f014	0.026359595
152	0x3d69faac	0.057123825
153	0xbd9c63db	-0.076362334
154	0x3d60a316	0.05484303
155	0xbd3eea10	-0.04660994
156	0x3c1e62de	0.009667126
157	0xbd1db9cd	-0.03850727
158	0xbce124af	-0.027483312
159	0x3d38a82c	0.045082256
160	0x3cec3ef7	0.028838618
161	0xbd1b1a44	-0.037866846
162	0x3b8c3835	0.0042791613
163	0xbd883f25	-0.06652669
164	0x3ce017e2	0.027355138
165	0x3b26710c	0.002539697
166	0xbd95ebac	-0.073203415
167	0xbd6c81fc	-0.05774115
168	0xbd1f21dc	-0.03885065
169	0xbd7a48b0	-0.061104476
170	0xbd0d6d34	-0.034527972
171	0x3c41e739	0.011834913
172	0xbcc1f2f7	-0.023675425
173	0xbbaae0e1	-0.005214796
174	0xbd4db72e	-0.050223522
175	0x3cc68faf	0.024238436
176	0xbc6c6db5	-0.014430453
177	0x3d2a2315	0.041537363
178	0xbd6dd3b3	-0.05806322
179	0x3d56bddd	0.05242716
180	0xbd2a8e9d	-0.041639913
181	0x3d57c791	0.052680556
182	0xbd9f9991	-0.07792962
183	0x3d654f36	0.055983745
184	0xbcf292c4	-0.029610999
185	0xbd0b2e23	-0.033979546
186	0xbda094f0	-0.078409076
187	0xba82e762	-0.000998717
188	0xbd9fafcf	-0.07797205
189	0xb9109533	-0.00013788491
190	0x3d1fbc8e	0.03899818
191	0x3ccaec9d	0.02477103
192	0xbbc079b2	-0.005873882
193	0x3d5e661f	0.05429661
194	0xbd857893	-0.06517138
195	0x3c9de007	0.019271864
196	0xbd528105	-0.051392574
197	0xbc4dbcc0	-0.012557209
198	0xbbf1f1bb	-0.007383553
199	0xbbc46eb1	-0.0059946408
200	0xbd6c7f8a	-0.05773882
201	0xbd1be2e5	-0.03805818
202	0x3d75d31e	0.06001579
203	0x3af73456	0.0018860202
204	0x3d482244	0.048860803
205	0xbd0eb2b3	-0.03483839
206	0xbcd6c384	-0.026216276
207	0xbcf22dea	-0.02956291
208	0xbc67f7ba	-0.014158184
209	0xbced072f	-0.02893409
210	0x3bac001e	0.0052490374
211	0xbd3c03da	-0.04590211
212	0x3c8b91fd	0.017037386
213	0xbc6ff4e6	-0.014645791
214	0xbc9a182e	-0.018810358
215	0xbd285344	-0.041095033
216	0xbd5be5d4	-0.053685978
217	0x3d6d051c	0.0578662
218	0x3d170f6f	0.036879953
219	0xbd8623c3	-0.0654979
220	0xbd99d126	-0.07510595
221	0xbd934feb	-0.071929775
222	0x3d5fcca5	0.054638524
223	0xbc69721d	-0.014248398
224	0x3d35fb5d	0.04442917
225	0x3ccbea6c	0.024892054
226	0xbce81723	-0.028331345
227	0x3b72db3e	0.0037056948
228	0xbc9788bf	-0.018497823
229	0x3c26d152	0.010181742
230	0x3d62cb2e	0.05536955
231	0xbcd6b17f	-0.026207684
232	0x3d31230a	0.043246306
233	0xbc63fb73	-0.013914931
234	0xbd5d6cb1	-0.054058734
235	0x3cdcc5c0	0.026949763
236	0x3cbda705	0.02315093
237	0x3cf4dc1d	0.029890114
238	0x3d1fbf1b	0.03900061
239	0x3d532c4f	0.051555928
240	0xbcf196a9	-0.029490786
241	0x3d299e69	0.041410837
242	0xbd83f047	-0.06442314
243	0x39df0b55	0.00042542318
244	0xbd05c073	-0.032654237
245	0xbda8270c	-0.082105726
246	0x3c002ae2	0.007822724
247	0xbd5df86c	-0.05419199
248	0xbd0edacf	-0.03487664
249	0xbd78e02f	-0.060760673
250	0x3b9bd5cd	0.0047557116
251	0x3d6ccad4	0.05781062
252	0xbd6485c9	-0.05579165
253	0x3b8073b5	0.0039200434
254	0x3d53fcb7	0.05175468
255	0x3d486571	0.048924867

sequential_3/conv2d_9/Conv2D f4 [64, 3, 3, 64]
0	0xbd0b441e	-0.03400051
1	0xbd5c32ed	-0.053759504
2	0x3d157952	0.036492653
3	0xbc9424ff	-0.018084047
4	0xbd03cd9a	-0.0321785
5	0x3ca7bd65	0.020476053
6	0xbd16d10c	-0.036820456
7	0xbd2b9ecf	-0.0418995
8	0x3d12249c	0.035679445
9	0x3d2bebbd	0.041972864
10	0x3d543183	0.05180503
11	0x3d1c0753	0.038092922
12	0xbd233cd1	-0.03985292
13	0xbd3ebb39	-0.04656527
14	0xbc4ceb6c	-0.012507301
15	0x3c8893e9	0.016672092
16	0xbcb944f6	-0.022615891
17	0xbca06d53	-0.01958338
18	0x3c6981b1	0.014252112
19	0x3c3e7551	0.01162465
20	0xbd3a2243	-0.04544283
21	0xbd03d4bf	-0.032185312
22	0xbd07b46d	-0.03313105
23	0xbcb0c419	-0.021577882
24	0x3c87708a	0.016533155
25	0xbc4f8cd2	-0.0126678515
26	0xbd140eb4	-0.036146834
27	0x3a6d63f4	0.00090557267
28	0xbd94a423	-0.07257869
29	0xbd081238	-0.0332205
30	0x3d28c99c	0.041207895
31	0x3a5479f2	0.00081053295
32	0x3d16d57c	0.03682469
33	0x3caa8f33	0.020820236
34	0xbd496026	-0.04916396
35	0x3d4933ed	0.049121786
36	0xbd2f20b9	-0.042755816
37	0xbd94d57a	-0.0726728
38	0xbd738bba	-0.059459426
39	0xbd347ad6	-0.044062458
40	0xbd657276	-0.05601736
41	0xbb8883c1	-0.004166097
42	0xbcef0783	-0.029178387
43	0x3d7943f7	0.060855832
44	0x3cf5722c	0.029961668
45	0x3d53b3ae	0.051685028
46	0xbd0545ab	-0.032537144
47	0xbd53a79e	-0.051673524
48	0x3d1cace5	0.038250823
49	0xbd891ae8	-0.06694585
50	0xbd44755b	-0.04796348
51	0xbd99fa6b	-0.075184666
52	0xbd7bb0fa	-0.061448075
53	0x3d77d1a4	0.060502663
54	0xbd699dbe	-0.0570352
55	0x3bd23847	0.0064154
56	0x3cbadceb	0.02281042
57	0x3cc8bc36	0.024503808
58	0x3c47dc6e	0.012198551
59	0x3c644a1d	0.013933686
60	0x3c5cea88	0.013483651
61	0xbc63e46d	-0.013909441
62	0x3cde0d7f	0.027106045
63	0x3cdbd9f3	0.026837325
64	0x3ccbccbb	0.024877897
65	0x3d71d862	0.05904425
66	0x3cf13e83	0.029448753
67	0xbc8dc6b0	-0.017306656
68	0x3cbb0b94	0.02283267
69	0xbd6016cd	-0.054709245
70	0x3d0289ec	0.031869814
71	0x3d8c23b3	0.068427466
72	0xbd5ddc4d	-0.054165173
73	0x3c5cb403	0.0134706525
74	0x3bd73a7b	0.0065682507
75	0x3d64f46b	0.055897158
76	0xbd32df2f	-0.043669876
77	0xbd7ce749	-0.06174401
78	0xbcb2d305	-0.021829138
79	0xbd6a1855	-0.05715211
80	0xbd9abb80	-0.07555294
81	0x3d1f1576	0.038838826
82	0x3c17e274	0.009270299
83	0x3d1b7354	0.037951782
84	0x3d175760	0.03694856
85	0xbd019feb	-0.03164665
86	0xbd0a7934	-0.033806995
87	0x3b35675a	0.002768001
88	0xbb6d4488	-0.0036204178
89	0x39875026	0.00025808922
90	0xbcb860e8	-0.022507146
91	0xbd5733fd	-0.052539814
92	0x3d5885b2	0.052861877
93	0x3cbcee76	0.023062926
94	0xbc47c739	-0.0121934945
95	0x3d0c3739	0.034232352
96	0xbd7e9c50	-0.06216079
97	0x3d4d1a7b	0.050074082
98	0x3d49c8e8	0.049263865
99	0xbcedfd52	-0.029051457
100	0x3c9da93b	0.019245734
101	0xbb9175d3	-0.0044390946
102	0xbd003240	-0.031297922
103	0xbd0ebe11	-0.03484923
104	0xbcd090ae	-0.025459614
105	0x3d269a66	0.04067459
106	0xbd86efeb	-0.065887295
107	0xbca970fc	-0.020683758
108	0xbd9e2e54	-0.0772368
109	0xbd8d897c	-0.06910989
110	0xbd31c253	-0.043398213
111	0x3cad3318	0.021142527
112	0xbad841e7	-0.0016499133
113	0xbc4b3676	-0.012403121
114	0xbd2d8a69	-0.042368326
115	0xbd4cf608	-0.05003932
116	0x3cb5b0bb	0.022178998
117	0xbce68509	-0.028139608
118	0x3c32793c	0.010893162
119	0xbd5dcbc7	-0.054149415
120	0xbba9b4d9	-0.0051790294
121	0xbd865a23	-0.06560161
122	0xbcfed73c	-0.031108491
123	0x3d4bcebf	0.049757715
124	0xbb91535d	-0.0044349865
125	0x3cac2260	0.021012485
126	0x3d2c3f00	0.04205227
127	0xbd8ecce9	-0.06972677
128	0xbcc93327	-0.024560524
129	0xbcdf099b	-0.02722626
130	0xbd674c5b	-0.056469303
131	0xbcdb863d	-0.026797408
132	0x3c6e7b54	0.014555771
133	0x3cde0d0b	0.027105829
134	0x3d98431e	0.074346766
135	0xbd3d6aae	-0.046244316
136	0x3cca407e	0.024688955
137	0xbd113d1b	-0.035458665
138	0xbc258d0f	-0.010104432
139	0x3c97c7fa	0.018527973
140	0x3cc2ed5d	0.023794824
141	0x3d4c9669	0.04994813
142	0x3bc88be9	0.006120194
143	0xbd85e75d	-0.0653827
144	0xbd925bc0	-0.07146406
145	0xbca5bcff	-0.020231722
146	0x3c107106	0.008816009
147	0x3d0f9b2a	0.035060085
148	0x3d70035a	0.058596946
149	0x3c15c841	0.0091419825
150	0x3b50f026	0.003188142
151	0xbd8090d3	-0.06277623
152	0xbd17283f	-0.036903616
153	0xbd2c58f6	-0.042077027
154	0x3d0ed8c0	0.034874678
155	0xbd0eb901	-0.034844402
156	0xbbd0a60d	-0.006367451
157	0xbd137beb	-0.03600685
158	0xbd5ace22	-0.05341924
159	0x3d3fb5b8	0.04680416
160	0x3c995e55	0.018721739
161	0xbd579243	-0.05262972
162	0xbd056735	-0.03256913
163	0xbd1597fc	-0.036521897
164	0x3d58e577	0.05295321
165	0xbd39b715	-0.045340616
166	0xbd31ddf7	-0.043424573
167	0xbc778098	-0.015106343
168	0xbd824af3	-0.06361952
169	0xbd8b3da9	-0.0679887
170	0x3ba43c3d	0.005012064
171	0x3c9e91f3	0.019356703
172	0xbcb9cfd6	-0.022682112
173	0x3cca85d1	0.024722012
174	0xbcc2d1a2	-0.023781601
175	0x3cd3762c	0.025813185
176	0xbd4a0540	-0.049321413
177	0xbd1e05e7	-0.038579848
178	0xbda5d9c6	-0.080981776
179	0xbca581b2	-0.020203445
180	0xbd6b15c9	-0.057393823
181	0xbd524fbc	-0.051345572
182	0x3d089b2c	0.03335111
183	0x3c1387b6	0.009004524
184	0xbd4088cc	-0.04700546
185	0xbc5fb9c9	-0.0136551345
186	0xbd8d8c2e	-0.06911503
187	0xbd932ec3	-0.071866535
188	0xbc9e3b0f	-0.01931527
189	0x3c5970e8	0.013271548
190	0xbd9c4b93	-0.07631602
191	0x3d09abea	0.033611216
192	0xbd4258e9	-0.047448073
193	0xbc64f8c9	-0.013975331
194	0xbcf1da6a	-0.029523093
195	0x3bc834fe	0.006109833
196	0xbd8aa561	-0.06769825
197	0xbc92e8dd	-0.017933303
198	0xbd69bf19	-0.05706701
199	0x3d73bb85	0.059505004
200	0xbd5cfa85	-0.05394985
201	0xbd9da376	-0.07697193
202	0xbc137719	-0.009000563
203	0x3c4f8735	0.012666513
204	0x3c4ede2c	0.012626212
205	0x3d16e6c4	0.03684117
206	0x3d1c8f33	0.038222503
207	0x3d1cd1f0	0.03828615
208	0xbd633e9d	-0.055479635
209	0xbd6af615	-0.05736359
210	0x3cb38de6	0.021918248
211	0xbcf57266	-0.029961776
212	0xbd8e0058	-0.06933659
213	0xbd86cb95	-0.06581799
214	0x39dbe009	0.00041937854
215	0xbd80c9c5	-0.062884845
216	0xbd2b5287	-0.04182675
217	0xbd01cad2	-0.031687565
218	0x3d8b8fa2	0.06814505
219	0x3d97ad25	0.074060716
220	0x3bb6c94c	0.0055781957
221	0xbd06cb52	-0.032908745
222	0x3d519811	0.051170412
223	0xbd8c5cfb	-0.06853672
224	0x3d2e7912	0.04259593
225	0xbd1f453c	-0.038884386
226	0x3d2f69b8	0.04282543
227	0xbd5d3243	-0.05400301
228	0x3ce3ab0c	0.027791522
229	0x3d47ffb3	0.04882784
230	0xbc4bae8b	-0.012431751
231	0x3b881100	0.004152417
232	0xbd123f6b	-0.03570501
233	0x3cd67cc4	0.02618254
234	0x3d2697fc	0.040672287
235	0xbd742017	-0.059600916
236	0xbd835b41	-0.0641389
237	0xbd5dc150	-0.054139435
238	0x3d18f9f6	0.037347756
239	0x3d53a8d4	0.05167468
240	0xbd4e9333	-0.05043335
241	0x3c9ebecb	0.019378087
242	0x3d6cdda2	0.057828553
243	0xbc78e735	-0.015191843
244	0x3c8356e8	0.016032651
245	0x3d455d47	0.04818466
246	0x3cb03ed2	0.02151433
247	0xbca03679	-0.019557225
248	0xbd80404f	-0.06262266
249	0x3d5f2901	0.054482464
250	0x3c4dfe90	0.012572899
251	0xbb5c4353	-0.0033609464
252	0x3c4f8390	0.012665644
253	0xbadebe9a	-0.001699406
254	0xbd56761d	-0.052358735
255	0xbd63ca20	-0.055612683

sequential_3/conv2d_10/Conv2D f4 [64, 3, 3, 64]
0	0x3d0a4eaa	0.033766426
1	0x3d043958	0.03228125
2	0xbb4f079f	-0.0031590236
3	0x3cb43868	0.021999553
4	0xbcccd856	-0.0250055
5	0x3dc97e75	0.09838573
6	0x3d92a6f7	0.07160752
7	0x3d2ecc3f	0.042675253
8	0xbcacfe35	-0.02111731
9	0x3ceea6c7	0.02913226
10	0xbd60fffc	-0.054931626
11	0x3d15b7fb	0.03655241
12	0xbd1481d8	-0.03625664
13	0xbb9f5242	-0.004862101
14	0xbd3b55b3	-0.045736026
15	0x3c032072	0.008003341
16	0xbcd0a491	-0.025469096
17	0xbb10d7d0	-0.002210129
18	0x3c87804d	0.01654067
19	0x3d891ba3	0.066947244
20	0x3dab1119	0.083528705
21	0xbc81a984	-0.015827902
22	0x3ca5fbf0	0.020261735
23	0xbce5dbd9	-0.028058933
24	0x3d8127e6	0.06306438
25	0xbd072026	-0.032989644
26	0x3da8c351	0.08240379
27	0xbd1305d2	-0.035894223
28	0xbd780886	-0.060555004
29	0xbcc70a8f	-0.024297027
30	0xbd6287fe	-0.055305474
31	0xbd5dbcdb	-0.054135185
32	0xbd8e4957	-0.06947582
33	0xbcb5aa02	-0.022175793
34	0xbca37d50	-0.019957215
35	0xbe09b8c1	-0.13449384
36	0x3aaf2eec	0.0013365424
37	0x3d19e2d6	0.037569843
38	0x3cfd6faf	0.030937044
39	0x3d07c473	0.033146333
40	0xbd3f4c93	-0.046703886
41	0x3d14883e	0.036262743
42	0x3ced437d	0.028962845
43	0x3d5c026b	0.053713243
44	0x3d5d8212	0.054079123
45	0x3c01ecfd	0.007930038
46	0x3c95d680	0.018290758
47	0x39d90f74	0.0004140098
48	0xbcefb43b	-0.029260745
49	0xbcc203b2	-0.023683403
50	0xbc32ddc7	-0.010917134
51	0xbd21081d	-0.039314378
52	0x3d342527	0.043980744
53	0x3d8eafba	0.06967111
54	0x3d9f02e0	0.0776422
55	0x3d9af8ec	0.07567009
56	0x3e1e619d	0.15466924
57	0xbd08fbfd	-0.03344344
58	0xbd2339f1	-0.03985018
59	0x3bbe654d	0.005810416
60	0xbd8e4ee3	-0.0694864
61	0xbda54850	-0.08070433
62	0x3dad9988	0.084765494
63	0xbd8a1d26	-0.06743841
64	0x3c1b348e	0.009472979
65	0x3d3e7031	0.046493713
66	0xbd44f91d	-0.048089135
67	0x3ce0ffc1	0.027465703
68	0xbd921389	-0.07132632
69	0x3d80538c	0.06265935
70	0x3d1ca896	0.038246714
71	0x3ccc02fb	0.024903765
72	0x3da00834	0.078140646
73	0x3cbb8bcf	0.022893814
74	0x3d052ee1	0.03251541
75	0x3d1dbc80	0.038509846
76	0xbd5100f8	-0.051026314
77	0x3d28934f	0.04115611
78	0xbb20706f	-0.0024481078
79	0x3d30c18b	0.043153327
80	0x3d836ade	0.06416868
81	0x3d4a91f3	0.049455594
82	0xbbabbce2	-0.0052410224
83	0xbd6e02c5	-0.05810811
84	0x3cf3e998	0.029774472
85	0xbd373576	-0.04472872
86	0x3c548fc3	0.012973729
87	0x3d0c23ee	0.034213953
88	0x3c23e5b4	0.010003496
89	0x3dc7da9e	0.09758495
90	0x3d8d2a2d	0.0689281
91	0x3d12a14b	0.035798352
92	0x3cdb0252	0.026734505
93	0x3d4b8acc	0.049692914
94	0x3d01f57b	0.03172825
95	0x3d493a78	0.049128026
96	0x3d37c3ed	0.044864584
97	0x3d92c10b	0.07165726
98	0x3d13e0e9	0.036103163
99	0xbe17b0ab	-0.14813487
100	0x3cfcd03a	0.030861009
101	0x3d2b580c	0.041832015
102	0xbd8a7623	-0.06760814
103	0xbd55e04f	-0.05221587
104	0x3cf0572b	0.02933844
105	0xbd5e42bf	-0.054262873
106	0x3de0297e	0.10945414
107	0x3d9ea20c	0.07745752
108	0xbb1a3880	-0.0023532212
109	0xbc4ec8e0	-0.0126211345
110	0xbbeab50c	-0.0071626958
111	0x3d326473	0.043552827
112	0xbd4ed146	-0.050492547
113	0xbc64b49a	-0.013959074
114	0x3ce3a04b	0.027786395
115	0xbb96729f	-0.0045913006
116	0xbd2805b6	-0.04102107
117	0x3cde0e9f	0.027106581
118	0xbb8e501a	-0.004343045
119	0x3d89bf2a	0.06725915
120	0x3d5f4b98	0.05451545
121	0x3d51c5df	0.051214095
122	0x3da34e52	0.07973923
123	0xbb81ec42	-0.0039649317
124	0x3dac0cb2	0.08400859
125	0xbd83d788	-0.06437594
126	0x3daf3dc2	0.08556701
127	0x3cb5777b	0.0221517
128	0xbcb41f4b	-0.021987578
129	0xbdcec27b	-0.10095688
130	0xbc3b188c	-0.011419427
131	0x3a465859	0.00075662654
132	0x3c60762a	0.0137000475
133	0x3bbd6f7c	0.0057811122
134	0x3bdf25dc	0.006809933
135	0x3d342eff	0.04399013
136	0xbc4196fa	-0.011815781
137	0x3d676f53	0.05650265
138	0xbcb114a7	-0.021616293
139	0x3ce1d94f	0.027569441
140	0xbdbad2a8	-0.09122211
141	0xbd25f3a7	-0.040515568
142	0x3d8ec0d1	0.069703706
143	0xbc0c179a	-0.008550549
144	0xbc5d791f	-0.013517647
145	0xbd860de9	-0.06545622
146	0x3cafe4ac	0.021471344
147	0x3c814674	0.015780665
148	0x3d1d8bce	0.038463406
149	0xbde5aab6	-0.11214201
150	0xbd84f6f9	-0.06492419
151	0x3d0d5559	0.034505222
152	0x3c33c894	0.0109731145
153	0x3ca8b522	0.020594183
154	0xbd760cf2	-0.06007094
155	0x3d396b59	0.04526839
156	0xbd59d029	-0.053177033
157	0xbc9ff54a	-0.019526143
158	0xbc7873e7	-0.015164352
159	0xbd21ee42	-0.03953386
160	0xbccf67fa	-0.025318135
161	0x3d242540	0.040074587
162	0xbcf024e1	-0.02931446
163	0xbde4362f	-0.11143147
164	0xbd3c8da0	-0.0460335
165	0xbce2b84b	-0.027675768
166	0xbd8d4663	-0.06898191
167	0xbd125399	-0.035724256
168	0x3d1d98c1	0.038475756
169	0xbd7ad3b8	-0.061237067
170	0xbb5bd337	-0.0033542642
171	0x3d27e0d4	0.040985897
172	0xbc90d2ef	-0.017678706
173	0x3c1ff8ef	0.00976394
174	0xbd1a47e3	-0.037666213
175	0xbd871115	-0.06595055
176	0xbc8d5d89	-0.017256515
177	0x3bc88be4	0.006120192
178	0xbd26ee1c	-0.040754423
179	0x3d54a893	0.051918577
180	0xbd35b5aa	-0.0443627
181	0x3c13eb8c	0.009028327
182	0x3d35fbbc	0.044429526
183	0xbbcbfc3f	-0.0062251384
184	0x3e2964a9	0.16542305
185	0xbd61b236	-0.055101596
186	0xbda3dfc4	-0.08001664
187	0x3c97216d	0.018448556
188	0xbc5a0bb7	-0.013308457
189	0xbd9a3659	-0.07529897
190	0xbd69c5df	-0.05707347
191	0x3cebb7c2	0.028774146
192	0x3d5c787d	0.053825844
193	0xbd3bffef	-0.045898374
194	0xbd9da7fc	-0.07698056
195	0xbd6b2e9c	-0.057417497
196	0x3d10f2f1	0.035387937
197	0xbc8bde4b	-0.017073771
198	0x3b91fc8e	0.0044551557
199	0x3c3aab69	0.011393406
200	0x3c4e1ec8	0.012580581
201	0xbd0a4d74	-0.03376527
202	0x3cf62b20	0.03004986
203	0xbc3f842e	-0.011689229
204	0xbb8ca363	-0.004291938
205	0x3d2fa810	0.042884886
206	0x3c5083f9	0.012726777
207	0xbd3d5461	-0.046223048
208	0xbd01067d	-0.03150033
209	0x3cc9fb29	0.024655895
210	0xbd0e22e1	-0.034701232
211	0xbcaf5f70	-0.021407813
212	0x3c34cb89	0.011034855
213	0x3d47e82e	0.04880541
214	0xbcf61ec1	-0.030043961
215	0x3d191cec	0.037381098
216	0x3be4b16e	0.006979159
217	0xbcde9ffa	-0.027175892
218	0xbd11e454	-0.03561814
219	0xbc9f54f3	-0.019449687
220	0x3d983b48	0.07433182
221	0xbd726913	-0.059182238
222	0xbd8f14d2	-0.06986393
223	0xbd6f1426	-0.058368824
224	0xbd5fc8e5	-0.054634947
225	0xbcdf9513	-0.027292764
226	0x3ca63cdd	0.020292694
227	0xbd19306a	-0.037399687
228	0xbcb72d75	-0.022360543
229	0x3d873827	0.06602507
230	0x3c12e802	0.008966448
231	0x3d2675ff	0.040639874
232	0x3d8d6e84	0.06905845
233	0x3d15492b	0.03644673
234	0x3decce70	0.11562812
235	0x3d751501	0.059834484
236	0xbb5a739a	-0.0033333064
237	0x3cbdd0f0	0.023170918
238	0x3ca94a65	0.020665357
239	0xbd8416f3	-0.0644969
240	0xbd50fd21	-0.051022653
241	0x3cd0b880	0.025478601
242	0x3d1452ec	0.036211893
243	0xbd4f33d7	-0.050586548
244	0xbd838ff1	-0.06423939
245	0xbcf47254	-0.029839672
246	0xbc9b6685	-0.018969784
247	0xbc382019	-0.011238121
248	0x3d5d69c9	0.054055963
249	0xbd1b9fc3	-0.037994158
250	0xbda1fbbc	-0.07909343
251	0xbdab5dda	-0.0836751
252	0xbc41d0e8	-0.011829592
253	0xbd6676ca	-0.05626563
254	0x3ce08757	0.027408285
255	0x3ca479cb	0.020077607
